Model: "model"
__________________________________________________________________________________________________
Layer (type)                    Output Shape         Param #     Connected to                     
==================================================================================================
input_1 (InputLayer)            [(None, 416, 416, 3) 0                                            
__________________________________________________________________________________________________
conv2d (Conv2D)                 (None, 416, 416, 32) 864         input_1[0][0]                    
__________________________________________________________________________________________________
batch_normalization (BatchNorma (None, 416, 416, 32) 128         conv2d[0][0]                     
__________________________________________________________________________________________________
leaky_re_lu (LeakyReLU)         (None, 416, 416, 32) 0           batch_normalization[0][0]        
__________________________________________________________________________________________________
zero_padding2d (ZeroPadding2D)  (None, 417, 417, 32) 0           leaky_re_lu[0][0]                
__________________________________________________________________________________________________
conv2d_1 (Conv2D)               (None, 208, 208, 64) 18432       zero_padding2d[0][0]             
__________________________________________________________________________________________________
batch_normalization_1 (BatchNor (None, 208, 208, 64) 256         conv2d_1[0][0]                   
__________________________________________________________________________________________________
leaky_re_lu_1 (LeakyReLU)       (None, 208, 208, 64) 0           batch_normalization_1[0][0]      
__________________________________________________________________________________________________
conv2d_2 (Conv2D)               (None, 208, 208, 32) 2048        leaky_re_lu_1[0][0]              
__________________________________________________________________________________________________
batch_normalization_2 (BatchNor (None, 208, 208, 32) 128         conv2d_2[0][0]                   
__________________________________________________________________________________________________
leaky_re_lu_2 (LeakyReLU)       (None, 208, 208, 32) 0           batch_normalization_2[0][0]      
__________________________________________________________________________________________________
conv2d_3 (Conv2D)               (None, 208, 208, 64) 18432       leaky_re_lu_2[0][0]              
__________________________________________________________________________________________________
batch_normalization_3 (BatchNor (None, 208, 208, 64) 256         conv2d_3[0][0]                   
__________________________________________________________________________________________________
leaky_re_lu_3 (LeakyReLU)       (None, 208, 208, 64) 0           batch_normalization_3[0][0]      
__________________________________________________________________________________________________
tf.__operators__.add (TFOpLambd (None, 208, 208, 64) 0           leaky_re_lu_1[0][0]              
                                                                 leaky_re_lu_3[0][0]              
__________________________________________________________________________________________________
zero_padding2d_1 (ZeroPadding2D (None, 209, 209, 64) 0           tf.__operators__.add[0][0]       
__________________________________________________________________________________________________
conv2d_4 (Conv2D)               (None, 104, 104, 128 73728       zero_padding2d_1[0][0]           
__________________________________________________________________________________________________
batch_normalization_4 (BatchNor (None, 104, 104, 128 512         conv2d_4[0][0]                   
__________________________________________________________________________________________________
leaky_re_lu_4 (LeakyReLU)       (None, 104, 104, 128 0           batch_normalization_4[0][0]      
__________________________________________________________________________________________________
conv2d_5 (Conv2D)               (None, 104, 104, 64) 8192        leaky_re_lu_4[0][0]              
__________________________________________________________________________________________________
batch_normalization_5 (BatchNor (None, 104, 104, 64) 256         conv2d_5[0][0]                   
__________________________________________________________________________________________________
leaky_re_lu_5 (LeakyReLU)       (None, 104, 104, 64) 0           batch_normalization_5[0][0]      
__________________________________________________________________________________________________
conv2d_6 (Conv2D)               (None, 104, 104, 128 73728       leaky_re_lu_5[0][0]              
__________________________________________________________________________________________________
batch_normalization_6 (BatchNor (None, 104, 104, 128 512         conv2d_6[0][0]                   
…
__________________________________________________________________________________________________
tf.__operators__.add_2 (TFOpLam (None, 104, 104, 128 0           tf.__operators__.add_1[0][0]     
                                                                 leaky_re_lu_8[0][0]              
__________________________________________________________________________________________________
zero_padding2d_2 (ZeroPadding2D (None, 105, 105, 128 0           tf.__operators__.add_2[0][0]     
__________________________________________________________________________________________________
conv2d_9 (Conv2D)               (None, 52, 52, 256)  294912      zero_padding2d_2[0][0]           
__________________________________________________________________________________________________
batch_normalization_9 (BatchNor (None, 52, 52, 256)  1024        conv2d_9[0][0]                   
__________________________________________________________________________________________________
leaky_re_lu_9 (LeakyReLU)       (None, 52, 52, 256)  0           batch_normalization_9[0][0]      
__________________________________________________________________________________________________
conv2d_10 (Conv2D)              (None, 52, 52, 128)  32768       leaky_re_lu_9[0][0]              
__________________________________________________________________________________________________
batch_normalization_10 (BatchNo (None, 52, 52, 128)  512         conv2d_10[0][0]                  
__________________________________________________________________________________________________
leaky_re_lu_10 (LeakyReLU)      (None, 52, 52, 128)  0           batch_normalization_10[0][0]     
__________________________________________________________________________________________________
conv2d_11 (Conv2D)              (None, 52, 52, 256)  294912      leaky_re_lu_10[0][0]             
__________________________________________________________________________________________________
batch_normalization_11 (BatchNo (None, 52, 52, 256)  1024        conv2d_11[0][0]                  
__________________________________________________________________________________________________
leaky_re_lu_11 (LeakyReLU)      (None, 52, 52, 256)  0           batch_normalization_11[0][0]     
__________________________________________________________________________________________________
tf.__operators__.add_3 (TFOpLam (None, 52, 52, 256)  0           leaky_re_lu_9[0][0]              
                                                                 leaky_re_lu_11[0][0]             
__________________________________________________________________________________________________
conv2d_12 (Conv2D)              (None, 52, 52, 128)  32768       tf.__operators__.add_3[0][0]     
__________________________________________________________________________________________________
batch_normalization_12 (BatchNo (None, 52, 52, 128)  512         conv2d_12[0][0]                  
__________________________________________________________________________________________________
leaky_re_lu_12 (LeakyReLU)      (None, 52, 52, 128)  0           batch_normalization_12[0][0]     
__________________________________________________________________________________________________
conv2d_13 (Conv2D)              (None, 52, 52, 256)  294912      leaky_re_lu_12[0][0]             
__________________________________________________________________________________________________
batch_normalization_13 (BatchNo (None, 52, 52, 256)  1024        conv2d_13[0][0]                  
__________________________________________________________________________________________________
leaky_re_lu_13 (LeakyReLU)      (None, 52, 52, 256)  0           batch_normalization_13[0][0]     
__________________________________________________________________________________________________
tf.__operators__.add_4 (TFOpLam (None, 52, 52, 256)  0           tf.__operators__.add_3[0][0]     
                                                                 leaky_re_lu_13[0][0]             
__________________________________________________________________________________________________
conv2d_14 (Conv2D)              (None, 52, 52, 128)  32768       tf.__operators__.add_4[0][0]     
__________________________________________________________________________________________________
batch_normalization_14 (BatchNo (None, 52, 52, 128)  512         conv2d_14[0][0]                  
__________________________________________________________________________________________________
leaky_re_lu_14 (LeakyReLU)      (None, 52, 52, 128)  0           batch_normalization_14[0][0]     
__________________________________________________________________________________________________
conv2d_15 (Conv2D)              (None, 52, 52, 256)  294912      leaky_re_lu_14[0][0]             
__________________________________________________________________________________________________
batch_normalization_15 (BatchNo (None, 52, 52, 256)  1024        conv2d_15[0][0]                  
__________________________________________________________________________________________________
leaky_re_lu_15 (LeakyReLU)      (None, 52, 52, 256)  0           batch_normalization_15[0][0]     
__________________________________________________________________________________________________
tf.__operators__.add_5 (TFOpLam (None, 52, 52, 256)  0           tf.__operators__.add_4[0][0]     
                                                                 leaky_re_lu_15[0][0]             
__________________________________________________________________________________________________
conv2d_16 (Conv2D)              (None, 52, 52, 128)  32768       tf.__operators__.add_5[0][0]     
__________________________________________________________________________________________________
batch_normalization_16 (BatchNo (None, 52, 52, 128)  512         conv2d_16[0][0]                  
__________________________________________________________________________________________________
leaky_re_lu_16 (LeakyReLU)      (None, 52, 52, 128)  0           batch_normalization_16[0][0]     
__________________________________________________________________________________________________
conv2d_17 (Conv2D)              (None, 52, 52, 256)  294912      leaky_re_lu_16[0][0]             
__________________________________________________________________________________________________
batch_normalization_17 (BatchNo (None, 52, 52, 256)  1024        conv2d_17[0][0]                  
__________________________________________________________________________________________________
leaky_re_lu_17 (LeakyReLU)      (None, 52, 52, 256)  0           batch_normalization_17[0][0]     
__________________________________________________________________________________________________
tf.__operators__.add_6 (TFOpLam (None, 52, 52, 256)  0           tf.__operators__.add_5[0][0]     
                                                                 leaky_re_lu_17[0][0]             
__________________________________________________________________________________________________
conv2d_18 (Conv2D)              (None, 52, 52, 128)  32768       tf.__operators__.add_6[0][0]     
__________________________________________________________________________________________________
batch_normalization_18 (BatchNo (None, 52, 52, 128)  512         conv2d_18[0][0]                  
__________________________________________________________________________________________________
leaky_re_lu_18 (LeakyReLU)      (None, 52, 52, 128)  0           batch_normalization_18[0][0]     
__________________________________________________________________________________________________
conv2d_19 (Conv2D)              (None, 52, 52, 256)  294912      leaky_re_lu_18[0][0]             
__________________________________________________________________________________________________
batch_normalization_19 (BatchNo (None, 52, 52, 256)  1024        conv2d_19[0][0]                  
__________________________________________________________________________________________________
leaky_re_lu_19 (LeakyReLU)      (None, 52, 52, 256)  0           batch_normalization_19[0][0]     
__________________________________________________________________________________________________
tf.__operators__.add_7 (TFOpLam (None, 52, 52, 256)  0           tf.__operators__.add_6[0][0]     
                                                                 leaky_re_lu_19[0][0]             
__________________________________________________________________________________________________
conv2d_20 (Conv2D)              (None, 52, 52, 128)  32768       tf.__operators__.add_7[0][0]     
__________________________________________________________________________________________________
batch_normalization_20 (BatchNo (None, 52, 52, 128)  512         conv2d_20[0][0]                  
__________________________________________________________________________________________________
leaky_re_lu_20 (LeakyReLU)      (None, 52, 52, 128)  0           batch_normalization_20[0][0]     
__________________________________________________________________________________________________
conv2d_21 (Conv2D)              (None, 52, 52, 256)  294912      leaky_re_lu_20[0][0]             
__________________________________________________________________________________________________
batch_normalization_21 (BatchNo (None, 52, 52, 256)  1024        conv2d_21[0][0]                  
__________________________________________________________________________________________________
leaky_re_lu_21 (LeakyReLU)      (None, 52, 52, 256)  0           batch_normalization_21[0][0]     
__________________________________________________________________________________________________
tf.__operators__.add_8 (TFOpLam (None, 52, 52, 256)  0           tf.__operators__.add_7[0][0]     
                                                                 leaky_re_lu_21[0][0]             
__________________________________________________________________________________________________
conv2d_22 (Conv2D)              (None, 52, 52, 128)  32768       tf.__operators__.add_8[0][0]     
__________________________________________________________________________________________________
batch_normalization_22 (BatchNo (None, 52, 52, 128)  512         conv2d_22[0][0]                  
__________________________________________________________________________________________________
leaky_re_lu_22 (LeakyReLU)      (None, 52, 52, 128)  0           batch_normalization_22[0][0]     
__________________________________________________________________________________________________
conv2d_23 (Conv2D)              (None, 52, 52, 256)  294912      leaky_re_lu_22[0][0]             
__________________________________________________________________________________________________
batch_normalization_23 (BatchNo (None, 52, 52, 256)  1024        conv2d_23[0][0]                  
__________________________________________________________________________________________________
leaky_re_lu_23 (LeakyReLU)      (None, 52, 52, 256)  0           batch_normalization_23[0][0]     
__________________________________________________________________________________________________
tf.__operators__.add_9 (TFOpLam (None, 52, 52, 256)  0           tf.__operators__.add_8[0][0]     
                                                                 leaky_re_lu_23[0][0]             
__________________________________________________________________________________________________
conv2d_24 (Conv2D)              (None, 52, 52, 128)  32768       tf.__operators__.add_9[0][0]     
__________________________________________________________________________________________________
batch_normalization_24 (BatchNo (None, 52, 52, 128)  512         conv2d_24[0][0]                  
__________________________________________________________________________________________________
leaky_re_lu_24 (LeakyReLU)      (None, 52, 52, 128)  0           batch_normalization_24[0][0]     
__________________________________________________________________________________________________
conv2d_25 (Conv2D)              (None, 52, 52, 256)  294912      leaky_re_lu_24[0][0]             
__________________________________________________________________________________________________
batch_normalization_25 (BatchNo (None, 52, 52, 256)  1024        conv2d_25[0][0]                  
__________________________________________________________________________________________________
leaky_re_lu_25 (LeakyReLU)      (None, 52, 52, 256)  0           batch_normalization_25[0][0]     
__________________________________________________________________________________________________
tf.__operators__.add_10 (TFOpLa (None, 52, 52, 256)  0           tf.__operators__.add_9[0][0]     
                                                                 leaky_re_lu_25[0][0]             
__________________________________________________________________________________________________
zero_padding2d_3 (ZeroPadding2D (None, 53, 53, 256)  0           tf.__operators__.add_10[0][0]    
__________________________________________________________________________________________________
conv2d_26 (Conv2D)              (None, 26, 26, 512)  1179648     zero_padding2d_3[0][0]           
__________________________________________________________________________________________________
batch_normalization_26 (BatchNo (None, 26, 26, 512)  2048        conv2d_26[0][0]                  
__________________________________________________________________________________________________
leaky_re_lu_26 (LeakyReLU)      (None, 26, 26, 512)  0           batch_normalization_26[0][0]     
__________________________________________________________________________________________________
conv2d_27 (Conv2D)              (None, 26, 26, 256)  131072      leaky_re_lu_26[0][0]             
__________________________________________________________________________________________________
batch_normalization_27 (BatchNo (None, 26, 26, 256)  1024        conv2d_27[0][0]                  
__________________________________________________________________________________________________
leaky_re_lu_27 (LeakyReLU)      (None, 26, 26, 256)  0           batch_normalization_27[0][0]     
__________________________________________________________________________________________________
conv2d_28 (Conv2D)              (None, 26, 26, 512)  1179648     leaky_re_lu_27[0][0]             
__________________________________________________________________________________________________
batch_normalization_28 (BatchNo (None, 26, 26, 512)  2048        conv2d_28[0][0]                  
__________________________________________________________________________________________________
leaky_re_lu_28 (LeakyReLU)      (None, 26, 26, 512)  0           batch_normalization_28[0][0]     
__________________________________________________________________________________________________
tf.__operators__.add_11 (TFOpLa (None, 26, 26, 512)  0           leaky_re_lu_26[0][0]             
                                                                 leaky_re_lu_28[0][0]             
__________________________________________________________________________________________________
conv2d_29 (Conv2D)              (None, 26, 26, 256)  131072      tf.__operators__.add_11[0][0]    
__________________________________________________________________________________________________
batch_normalization_29 (BatchNo (None, 26, 26, 256)  1024        conv2d_29[0][0]                  
__________________________________________________________________________________________________
leaky_re_lu_29 (LeakyReLU)      (None, 26, 26, 256)  0           batch_normalization_29[0][0]     
__________________________________________________________________________________________________
conv2d_30 (Conv2D)              (None, 26, 26, 512)  1179648     leaky_re_lu_29[0][0]             
__________________________________________________________________________________________________
batch_normalization_30 (BatchNo (None, 26, 26, 512)  2048        conv2d_30[0][0]                  
__________________________________________________________________________________________________
leaky_re_lu_30 (LeakyReLU)      (None, 26, 26, 512)  0           batch_normalization_30[0][0]     
__________________________________________________________________________________________________
tf.__operators__.add_12 (TFOpLa (None, 26, 26, 512)  0           tf.__operators__.add_11[0][0]    
                                                                 leaky_re_lu_30[0][0]             
__________________________________________________________________________________________________
conv2d_31 (Conv2D)              (None, 26, 26, 256)  131072      tf.__operators__.add_12[0][0]    
__________________________________________________________________________________________________
batch_normalization_31 (BatchNo (None, 26, 26, 256)  1024        conv2d_31[0][0]                  
__________________________________________________________________________________________________
leaky_re_lu_31 (LeakyReLU)      (None, 26, 26, 256)  0           batch_normalization_31[0][0]     
__________________________________________________________________________________________________
conv2d_32 (Conv2D)              (None, 26, 26, 512)  1179648     leaky_re_lu_31[0][0]             
__________________________________________________________________________________________________
batch_normalization_32 (BatchNo (None, 26, 26, 512)  2048        conv2d_32[0][0]                  
__________________________________________________________________________________________________
leaky_re_lu_32 (LeakyReLU)      (None, 26, 26, 512)  0           batch_normalization_32[0][0]     
__________________________________________________________________________________________________
tf.__operators__.add_13 (TFOpLa (None, 26, 26, 512)  0           tf.__operators__.add_12[0][0]    
                                                                 leaky_re_lu_32[0][0]             
__________________________________________________________________________________________________
conv2d_33 (Conv2D)              (None, 26, 26, 256)  131072      tf.__operators__.add_13[0][0]    
__________________________________________________________________________________________________
batch_normalization_33 (BatchNo (None, 26, 26, 256)  1024        conv2d_33[0][0]                  
__________________________________________________________________________________________________
leaky_re_lu_33 (LeakyReLU)      (None, 26, 26, 256)  0           batch_normalization_33[0][0]     
__________________________________________________________________________________________________
conv2d_34 (Conv2D)              (None, 26, 26, 512)  1179648     leaky_re_lu_33[0][0]             
__________________________________________________________________________________________________
batch_normalization_34 (BatchNo (None, 26, 26, 512)  2048        conv2d_34[0][0]                  
__________________________________________________________________________________________________
leaky_re_lu_34 (LeakyReLU)      (None, 26, 26, 512)  0           batch_normalization_34[0][0]     
__________________________________________________________________________________________________
tf.__operators__.add_14 (TFOpLa (None, 26, 26, 512)  0           tf.__operators__.add_13[0][0]    
                                                                 leaky_re_lu_34[0][0]             
__________________________________________________________________________________________________
conv2d_35 (Conv2D)              (None, 26, 26, 256)  131072      tf.__operators__.add_14[0][0]    
__________________________________________________________________________________________________
batch_normalization_35 (BatchNo (None, 26, 26, 256)  1024        conv2d_35[0][0]                  
__________________________________________________________________________________________________
leaky_re_lu_35 (LeakyReLU)      (None, 26, 26, 256)  0           batch_normalization_35[0][0]     
__________________________________________________________________________________________________
conv2d_36 (Conv2D)              (None, 26, 26, 512)  1179648     leaky_re_lu_35[0][0]             
__________________________________________________________________________________________________
batch_normalization_36 (BatchNo (None, 26, 26, 512)  2048        conv2d_36[0][0]                  
__________________________________________________________________________________________________
leaky_re_lu_36 (LeakyReLU)      (None, 26, 26, 512)  0           batch_normalization_36[0][0]     
__________________________________________________________________________________________________
tf.__operators__.add_15 (TFOpLa (None, 26, 26, 512)  0           tf.__operators__.add_14[0][0]    
                                                                 leaky_re_lu_36[0][0]             
__________________________________________________________________________________________________
conv2d_37 (Conv2D)              (None, 26, 26, 256)  131072      tf.__operators__.add_15[0][0]    
__________________________________________________________________________________________________
batch_normalization_37 (BatchNo (None, 26, 26, 256)  1024        conv2d_37[0][0]                  
__________________________________________________________________________________________________
leaky_re_lu_37 (LeakyReLU)      (None, 26, 26, 256)  0           batch_normalization_37[0][0]     
__________________________________________________________________________________________________
conv2d_38 (Conv2D)              (None, 26, 26, 512)  1179648     leaky_re_lu_37[0][0]             
__________________________________________________________________________________________________
batch_normalization_38 (BatchNo (None, 26, 26, 512)  2048        conv2d_38[0][0]                  
__________________________________________________________________________________________________
leaky_re_lu_38 (LeakyReLU)      (None, 26, 26, 512)  0           batch_normalization_38[0][0]     
__________________________________________________________________________________________________
tf.__operators__.add_16 (TFOpLa (None, 26, 26, 512)  0           tf.__operators__.add_15[0][0]    
                                                                 leaky_re_lu_38[0][0]             
__________________________________________________________________________________________________
conv2d_39 (Conv2D)              (None, 26, 26, 256)  131072      tf.__operators__.add_16[0][0]    
__________________________________________________________________________________________________
batch_normalization_39 (BatchNo (None, 26, 26, 256)  1024        conv2d_39[0][0]                  
__________________________________________________________________________________________________
leaky_re_lu_39 (LeakyReLU)      (None, 26, 26, 256)  0           batch_normalization_39[0][0]     
__________________________________________________________________________________________________
conv2d_40 (Conv2D)              (None, 26, 26, 512)  1179648     leaky_re_lu_39[0][0]             
__________________________________________________________________________________________________
batch_normalization_40 (BatchNo (None, 26, 26, 512)  2048        conv2d_40[0][0]                  
__________________________________________________________________________________________________
leaky_re_lu_40 (LeakyReLU)      (None, 26, 26, 512)  0           batch_normalization_40[0][0]     
__________________________________________________________________________________________________
tf.__operators__.add_17 (TFOpLa (None, 26, 26, 512)  0           tf.__operators__.add_16[0][0]    
                                                                 leaky_re_lu_40[0][0]             
__________________________________________________________________________________________________
conv2d_41 (Conv2D)              (None, 26, 26, 256)  131072      tf.__operators__.add_17[0][0]    
__________________________________________________________________________________________________
batch_normalization_41 (BatchNo (None, 26, 26, 256)  1024        conv2d_41[0][0]                  
__________________________________________________________________________________________________
leaky_re_lu_41 (LeakyReLU)      (None, 26, 26, 256)  0           batch_normalization_41[0][0]     
__________________________________________________________________________________________________
conv2d_42 (Conv2D)              (None, 26, 26, 512)  1179648     leaky_re_lu_41[0][0]             
__________________________________________________________________________________________________
batch_normalization_42 (BatchNo (None, 26, 26, 512)  2048        conv2d_42[0][0]                  
__________________________________________________________________________________________________
leaky_re_lu_42 (LeakyReLU)      (None, 26, 26, 512)  0           batch_normalization_42[0][0]     
__________________________________________________________________________________________________
tf.__operators__.add_18 (TFOpLa (None, 26, 26, 512)  0           tf.__operators__.add_17[0][0]    
                                                                 leaky_re_lu_42[0][0]             
__________________________________________________________________________________________________
zero_padding2d_4 (ZeroPadding2D (None, 27, 27, 512)  0           tf.__operators__.add_18[0][0]    
__________________________________________________________________________________________________
conv2d_43 (Conv2D)              (None, 13, 13, 1024) 4718592     zero_padding2d_4[0][0]           
__________________________________________________________________________________________________
batch_normalization_43 (BatchNo (None, 13, 13, 1024) 4096        conv2d_43[0][0]                  
__________________________________________________________________________________________________
leaky_re_lu_43 (LeakyReLU)      (None, 13, 13, 1024) 0           batch_normalization_43[0][0]     
__________________________________________________________________________________________________
conv2d_44 (Conv2D)              (None, 13, 13, 512)  524288      leaky_re_lu_43[0][0]             
__________________________________________________________________________________________________
batch_normalization_44 (BatchNo (None, 13, 13, 512)  2048        conv2d_44[0][0]                  
__________________________________________________________________________________________________
leaky_re_lu_44 (LeakyReLU)      (None, 13, 13, 512)  0           batch_normalization_44[0][0]     
__________________________________________________________________________________________________
conv2d_45 (Conv2D)              (None, 13, 13, 1024) 4718592     leaky_re_lu_44[0][0]             
__________________________________________________________________________________________________
batch_normalization_45 (BatchNo (None, 13, 13, 1024) 4096        conv2d_45[0][0]                  
__________________________________________________________________________________________________
leaky_re_lu_45 (LeakyReLU)      (None, 13, 13, 1024) 0           batch_normalization_45[0][0]     
__________________________________________________________________________________________________
tf.__operators__.add_19 (TFOpLa (None, 13, 13, 1024) 0           leaky_re_lu_43[0][0]             
                                                                 leaky_re_lu_45[0][0]             
__________________________________________________________________________________________________
conv2d_46 (Conv2D)              (None, 13, 13, 512)  524288      tf.__operators__.add_19[0][0]    
__________________________________________________________________________________________________
batch_normalization_46 (BatchNo (None, 13, 13, 512)  2048        conv2d_46[0][0]                  
__________________________________________________________________________________________________
leaky_re_lu_46 (LeakyReLU)      (None, 13, 13, 512)  0           batch_normalization_46[0][0]     
__________________________________________________________________________________________________
conv2d_47 (Conv2D)              (None, 13, 13, 1024) 4718592     leaky_re_lu_46[0][0]             
__________________________________________________________________________________________________
batch_normalization_47 (BatchNo (None, 13, 13, 1024) 4096        conv2d_47[0][0]                  
__________________________________________________________________________________________________
leaky_re_lu_47 (LeakyReLU)      (None, 13, 13, 1024) 0           batch_normalization_47[0][0]     
__________________________________________________________________________________________________
tf.__operators__.add_20 (TFOpLa (None, 13, 13, 1024) 0           tf.__operators__.add_19[0][0]    
                                                                 leaky_re_lu_47[0][0]             
__________________________________________________________________________________________________
conv2d_48 (Conv2D)              (None, 13, 13, 512)  524288      tf.__operators__.add_20[0][0]    
__________________________________________________________________________________________________
batch_normalization_48 (BatchNo (None, 13, 13, 512)  2048        conv2d_48[0][0]                  
__________________________________________________________________________________________________
leaky_re_lu_48 (LeakyReLU)      (None, 13, 13, 512)  0           batch_normalization_48[0][0]     
__________________________________________________________________________________________________
conv2d_49 (Conv2D)              (None, 13, 13, 1024) 4718592     leaky_re_lu_48[0][0]             
__________________________________________________________________________________________________
batch_normalization_49 (BatchNo (None, 13, 13, 1024) 4096        conv2d_49[0][0]                  
__________________________________________________________________________________________________
leaky_re_lu_49 (LeakyReLU)      (None, 13, 13, 1024) 0           batch_normalization_49[0][0]     
__________________________________________________________________________________________________
tf.__operators__.add_21 (TFOpLa (None, 13, 13, 1024) 0           tf.__operators__.add_20[0][0]    
                                                                 leaky_re_lu_49[0][0]             
__________________________________________________________________________________________________
conv2d_50 (Conv2D)              (None, 13, 13, 512)  524288      tf.__operators__.add_21[0][0]    
__________________________________________________________________________________________________
batch_normalization_50 (BatchNo (None, 13, 13, 512)  2048        conv2d_50[0][0]                  
__________________________________________________________________________________________________
leaky_re_lu_50 (LeakyReLU)      (None, 13, 13, 512)  0           batch_normalization_50[0][0]     
__________________________________________________________________________________________________
conv2d_51 (Conv2D)              (None, 13, 13, 1024) 4718592     leaky_re_lu_50[0][0]             
__________________________________________________________________________________________________
batch_normalization_51 (BatchNo (None, 13, 13, 1024) 4096        conv2d_51[0][0]                  
__________________________________________________________________________________________________
leaky_re_lu_51 (LeakyReLU)      (None, 13, 13, 1024) 0           batch_normalization_51[0][0]     
__________________________________________________________________________________________________
tf.__operators__.add_22 (TFOpLa (None, 13, 13, 1024) 0           tf.__operators__.add_21[0][0]    
                                                                 leaky_re_lu_51[0][0]             
__________________________________________________________________________________________________
conv2d_52 (Conv2D)              (None, 13, 13, 512)  524288      tf.__operators__.add_22[0][0]    
__________________________________________________________________________________________________
batch_normalization_52 (BatchNo (None, 13, 13, 512)  2048        conv2d_52[0][0]                  
__________________________________________________________________________________________________
leaky_re_lu_52 (LeakyReLU)      (None, 13, 13, 512)  0           batch_normalization_52[0][0]     
__________________________________________________________________________________________________
conv2d_53 (Conv2D)              (None, 13, 13, 1024) 4718592     leaky_re_lu_52[0][0]             
__________________________________________________________________________________________________
batch_normalization_53 (BatchNo (None, 13, 13, 1024) 4096        conv2d_53[0][0]                  
__________________________________________________________________________________________________
leaky_re_lu_53 (LeakyReLU)      (None, 13, 13, 1024) 0           batch_normalization_53[0][0]     
__________________________________________________________________________________________________
conv2d_54 (Conv2D)              (None, 13, 13, 512)  524288      leaky_re_lu_53[0][0]             
__________________________________________________________________________________________________
batch_normalization_54 (BatchNo (None, 13, 13, 512)  2048        conv2d_54[0][0]                  
__________________________________________________________________________________________________
leaky_re_lu_54 (LeakyReLU)      (None, 13, 13, 512)  0           batch_normalization_54[0][0]     
__________________________________________________________________________________________________
conv2d_55 (Conv2D)              (None, 13, 13, 1024) 4718592     leaky_re_lu_54[0][0]             
__________________________________________________________________________________________________
batch_normalization_55 (BatchNo (None, 13, 13, 1024) 4096        conv2d_55[0][0]                  
__________________________________________________________________________________________________
leaky_re_lu_55 (LeakyReLU)      (None, 13, 13, 1024) 0           batch_normalization_55[0][0]     
__________________________________________________________________________________________________
conv2d_56 (Conv2D)              (None, 13, 13, 512)  524288      leaky_re_lu_55[0][0]             
__________________________________________________________________________________________________
batch_normalization_56 (BatchNo (None, 13, 13, 512)  2048        conv2d_56[0][0]                  
__________________________________________________________________________________________________
leaky_re_lu_56 (LeakyReLU)      (None, 13, 13, 512)  0           batch_normalization_56[0][0]     
__________________________________________________________________________________________________
conv2d_59 (Conv2D)              (None, 13, 13, 256)  131072      leaky_re_lu_56[0][0]             
__________________________________________________________________________________________________
batch_normalization_58 (BatchNo (None, 13, 13, 256)  1024        conv2d_59[0][0]                  
__________________________________________________________________________________________________
leaky_re_lu_58 (LeakyReLU)      (None, 13, 13, 256)  0           batch_normalization_58[0][0]     
__________________________________________________________________________________________________
tf.image.resize (TFOpLambda)    (None, 26, 26, 256)  0           leaky_re_lu_58[0][0]             
__________________________________________________________________________________________________
tf.concat (TFOpLambda)          (None, 26, 26, 768)  0           tf.image.resize[0][0]            
                                                                 tf.__operators__.add_18[0][0]    
__________________________________________________________________________________________________
conv2d_60 (Conv2D)              (None, 26, 26, 256)  196608      tf.concat[0][0]                  
__________________________________________________________________________________________________
batch_normalization_59 (BatchNo (None, 26, 26, 256)  1024        conv2d_60[0][0]                  
__________________________________________________________________________________________________
leaky_re_lu_59 (LeakyReLU)      (None, 26, 26, 256)  0           batch_normalization_59[0][0]     
__________________________________________________________________________________________________
conv2d_61 (Conv2D)              (None, 26, 26, 512)  1179648     leaky_re_lu_59[0][0]             
__________________________________________________________________________________________________
batch_normalization_60 (BatchNo (None, 26, 26, 512)  2048        conv2d_61[0][0]                  
__________________________________________________________________________________________________
leaky_re_lu_60 (LeakyReLU)      (None, 26, 26, 512)  0           batch_normalization_60[0][0]     
__________________________________________________________________________________________________
conv2d_62 (Conv2D)              (None, 26, 26, 256)  131072      leaky_re_lu_60[0][0]             
__________________________________________________________________________________________________
batch_normalization_61 (BatchNo (None, 26, 26, 256)  1024        conv2d_62[0][0]                  
__________________________________________________________________________________________________
leaky_re_lu_61 (LeakyReLU)      (None, 26, 26, 256)  0           batch_normalization_61[0][0]     
__________________________________________________________________________________________________
conv2d_63 (Conv2D)              (None, 26, 26, 512)  1179648     leaky_re_lu_61[0][0]             
__________________________________________________________________________________________________
batch_normalization_62 (BatchNo (None, 26, 26, 512)  2048        conv2d_63[0][0]                  
__________________________________________________________________________________________________
leaky_re_lu_62 (LeakyReLU)      (None, 26, 26, 512)  0           batch_normalization_62[0][0]     
__________________________________________________________________________________________________
conv2d_64 (Conv2D)              (None, 26, 26, 256)  131072      leaky_re_lu_62[0][0]             
__________________________________________________________________________________________________
batch_normalization_63 (BatchNo (None, 26, 26, 256)  1024        conv2d_64[0][0]                  
__________________________________________________________________________________________________
leaky_re_lu_63 (LeakyReLU)      (None, 26, 26, 256)  0           batch_normalization_63[0][0]     
__________________________________________________________________________________________________
conv2d_67 (Conv2D)              (None, 26, 26, 128)  32768       leaky_re_lu_63[0][0]             
__________________________________________________________________________________________________
batch_normalization_65 (BatchNo (None, 26, 26, 128)  512         conv2d_67[0][0]                  
__________________________________________________________________________________________________
leaky_re_lu_65 (LeakyReLU)      (None, 26, 26, 128)  0           batch_normalization_65[0][0]     
__________________________________________________________________________________________________
tf.image.resize_1 (TFOpLambda)  (None, 52, 52, 128)  0           leaky_re_lu_65[0][0]             
__________________________________________________________________________________________________
tf.concat_1 (TFOpLambda)        (None, 52, 52, 384)  0           tf.image.resize_1[0][0]          
                                                                 tf.__operators__.add_10[0][0]    
__________________________________________________________________________________________________
conv2d_68 (Conv2D)              (None, 52, 52, 128)  49152       tf.concat_1[0][0]                
__________________________________________________________________________________________________
batch_normalization_66 (BatchNo (None, 52, 52, 128)  512         conv2d_68[0][0]                  
__________________________________________________________________________________________________
leaky_re_lu_66 (LeakyReLU)      (None, 52, 52, 128)  0           batch_normalization_66[0][0]     
__________________________________________________________________________________________________
conv2d_69 (Conv2D)              (None, 52, 52, 256)  294912      leaky_re_lu_66[0][0]             
__________________________________________________________________________________________________
batch_normalization_67 (BatchNo (None, 52, 52, 256)  1024        conv2d_69[0][0]                  
__________________________________________________________________________________________________
leaky_re_lu_67 (LeakyReLU)      (None, 52, 52, 256)  0           batch_normalization_67[0][0]     
__________________________________________________________________________________________________
conv2d_70 (Conv2D)              (None, 52, 52, 128)  32768       leaky_re_lu_67[0][0]             
__________________________________________________________________________________________________
batch_normalization_68 (BatchNo (None, 52, 52, 128)  512         conv2d_70[0][0]                  
__________________________________________________________________________________________________
leaky_re_lu_68 (LeakyReLU)      (None, 52, 52, 128)  0           batch_normalization_68[0][0]     
__________________________________________________________________________________________________
conv2d_71 (Conv2D)              (None, 52, 52, 256)  294912      leaky_re_lu_68[0][0]             
__________________________________________________________________________________________________
batch_normalization_69 (BatchNo (None, 52, 52, 256)  1024        conv2d_71[0][0]                  
__________________________________________________________________________________________________
leaky_re_lu_69 (LeakyReLU)      (None, 52, 52, 256)  0           batch_normalization_69[0][0]     
__________________________________________________________________________________________________
conv2d_72 (Conv2D)              (None, 52, 52, 128)  32768       leaky_re_lu_69[0][0]             
__________________________________________________________________________________________________
batch_normalization_70 (BatchNo (None, 52, 52, 128)  512         conv2d_72[0][0]                  
__________________________________________________________________________________________________
leaky_re_lu_70 (LeakyReLU)      (None, 52, 52, 128)  0           batch_normalization_70[0][0]     
__________________________________________________________________________________________________
conv2d_73 (Conv2D)              (None, 52, 52, 256)  294912      leaky_re_lu_70[0][0]             
__________________________________________________________________________________________________
conv2d_65 (Conv2D)              (None, 26, 26, 512)  1179648     leaky_re_lu_63[0][0]             
__________________________________________________________________________________________________
conv2d_57 (Conv2D)              (None, 13, 13, 1024) 4718592     leaky_re_lu_56[0][0]             
__________________________________________________________________________________________________
batch_normalization_71 (BatchNo (None, 52, 52, 256)  1024        conv2d_73[0][0]                  
__________________________________________________________________________________________________
batch_normalization_64 (BatchNo (None, 26, 26, 512)  2048        conv2d_65[0][0]                  
__________________________________________________________________________________________________
batch_normalization_57 (BatchNo (None, 13, 13, 1024) 4096        conv2d_57[0][0]                  
__________________________________________________________________________________________________
leaky_re_lu_71 (LeakyReLU)      (None, 52, 52, 256)  0           batch_normalization_71[0][0]     
__________________________________________________________________________________________________
leaky_re_lu_64 (LeakyReLU)      (None, 26, 26, 512)  0           batch_normalization_64[0][0]     
__________________________________________________________________________________________________
leaky_re_lu_57 (LeakyReLU)      (None, 13, 13, 1024) 0           batch_normalization_57[0][0]     
__________________________________________________________________________________________________
conv2d_74 (Conv2D)              (None, 52, 52, 255)  65535       leaky_re_lu_71[0][0]             
__________________________________________________________________________________________________
conv2d_66 (Conv2D)              (None, 26, 26, 255)  130815      leaky_re_lu_64[0][0]             
__________________________________________________________________________________________________
conv2d_58 (Conv2D)              (None, 13, 13, 255)  261375      leaky_re_lu_57[0][0]             
__________________________________________________________________________________________________
tf.compat.v1.shape_1 (TFOpLambd (4,)                 0           conv2d_74[0][0]                  
__________________________________________________________________________________________________
tf.compat.v1.shape_3 (TFOpLambd (4,)                 0           conv2d_66[0][0]                  
…
